wall_mask_model.npz (npz, 3110 bytes, 6 tensors)

W1 f8 [3, 16]
1.3055054359103306 -0.4614543872402368 0.7624691629270178 -0.6431283110073095 -1.402286865878726 0.9940587224846529 -0.20207090803134897 -0.10621951881094678
-0.3514158026328983 -0.5504450831597407 3.1137240052337485 0.5306817739278231 1.4379419310945023 1.0458959051122614 1.6645380533942453 1.0969706332829894
-1.0786788500983069 2.010137681416852 -0.28247756157414927 0.06493304054249548 -0.5288753284003299 -1.4018833762098144 -0.4476996692614615 4.42051050793676
1.4989309931897012 1.6998859014942835 -4.485405901471995 1.8743071747015276 -1.04752139720097 0.07477703952673527 -0.20094760263377984 -0.4169973613181954
4.3807497206998995 -2.358860032829305 1.6000981169176658 -0.42684584095310657 1.5869446948197938 1.0585004530143873 -0.14744621908213643 -4.304669490791702
-1.488830966394798 -1.2116708168457895 4.735747357997925 -1.5599462538846118 1.2354962651192583 -0.5372164416101729 1.8774541568975647 0.9013367682332195
00000000: f2c2 ffaa 59e3 f43f ecb8 72fb 7788 ddbf
00000010: 775c dfba 2566 e83f 3f0f ddd2 8194 e4bf
00000020: 93f3 485a c46f f6bf 0401 ec3c 54cf ef3f
00000030: 88dc bba2 75dd c9bf 5568 7dcf 3331 bbbf
00000040: e2c6 e6b4 987d d6bf 6448 cd01 3f9d e1bf
00000050: 1ffe 9921 e8e8 0840 f44d f357 58fb e03f
00000060: 4c91 f965 cf01 f73f c4a3 3758 fdbb f03f
00000070: 9e69 64a7 f2a1 fa3f 30f7 2914 318d f13f
00000080: 22f2 00c1 4442 f1bf 2424 9110 c314 0040
00000090: a425 34c4 1c14 d2bf ff52 8fa5 739f b03f
000000a0: 6d80 e4f3 8bec e0bf 1509 5a43 1d6e f6bf
000000b0: 911c 7a83 1ca7 dcbf d7d9 7c4e 9aae 1140
000000c0: 7a5e ab10 9ffb f73f 3f97 1d8f bb32 fb3f
000000d0: 336e a03e 0ef1 11c0 ff04 2085 29fd fd3f
000000e0: 0e6a edcb a5c2 f0bf 9d4f 428b 9624 b33f
000000f0: abc6 c2aa a6b8 c9bf 0451 58b3 15b0 dabf
00000100: 0478 3941 e385 1140 2fbf 4602 f2de 02c0
00000110: 48d7 a87b 009a f93f 03f1 d437 7151 dbbf
00000120: c9fc cc1e 2064 f93f b8f7 c72b 9eef f03f
00000130: 5135 7088 84df c2bf 4728 6c47 fb37 11c0
00000140: f400 5f6b 40d2 f7bf a2ec 3df0 0063 f3bf
00000150: c2e0 62c1 67f1 1240 e33b ff33 8af5 f8bf
00000160: 1b47 50bb 97c4 f33f 9dda f288 e030 e1bf
00000170: 25d4 b95e 0d0a fe3f edce c734 c0d7 ec3f

b1 f8 [16]
-2.0571669421213317 0.25230595838795533 -0.9059918851021542 0.0 -0.16429721840325917 -0.08746864533684379 0.0 -0.037511747883973885
0.6305797517771343 0.762724222477931 -0.7898642251829716 -0.2926734174118001 -0.31429547611627756 -0.2970041134484042 -0.7120188193071048 -0.36652110134256544
00000000: 6a96 16f1 1375 00c0 5e2e f7e3 c725 d03f
00000010: 8690 9eb1 e2fd ecbf 0000 0000 0000 0000
00000020: 78d1 eef5 b007 c5bf bcac 255b 5864 b6bf
00000030: 0000 0000 0000 0000 1943 c164 bd34 a3bf
00000040: 04e2 6c96 b52d e43f 9b1c eda0 3c68 e83f
00000050: a91e ee56 9146 e9bf a24d 0c49 29bb d2bf
00000060: 71cf ccc5 6a1d d4bf a774 828a 1d02 d3bf
00000070: 03f0 e1b0 dbc8 e6bf a6da e3eb 1475 d7bf

W2 f8 [16, 8]
0.13702430378347027 -2.3941976314104503 0.48922786997208906 0.5103089027255647 4.2023341522730355 0.7006664018303415 -0.4507095144655489 -0.2242980113416731
0.28620721475290306 -0.12693432365351903 -0.0875775566931105 -0.13850149677133292 0.9992485038916692 1.8108755358548592 -0.20314169561309384 0.3134128121099554
-0.4601904264341819 -0.707125235515845 -0.035688040903352924 0.31546765874094745 1.6563853900927468 -0.8585295695521337 -0.11929251523245504 -0.05509233676728949
-0.24809795985918193 -0.3217256868858123 -0.45688877316432175 -0.15441120449882087 0.20562099983837678 0.20836906673822117 -0.8372663748478005 0.18299244681636279
-0.17220049775337476 0.09893569587661828 -0.11867088735992415 -0.5054872107510271 -0.2781276810213359 0.08038047101982469 -0.08303528143713902 -0.23883382522078836
0.1297801745577409 0.09834698516620939 0.5592465751152119 -0.02620886938036991 0.24615934880039628 -1.4052685912802252 0.4204058616352764 0.05339861939557606
0.25720765793157396 0.1285214057778859 0.40002542291282445 -0.2058975337731307 -0.11677768660824878 -0.4197963168468385 0.29327671010572115 -0.3764041463194201
0.019658139596379836 -0.21034565465841218 0.15428689876030172 0.4946626949884851 0.340581923590521 3.435655866767107 0.12165537444913675 0.49871349728422465
-0.3544964879456484 0.7924323297062605 0.21583816476049925 -0.20944442630806023 -0.406764431997623 1.6847532464336967 0.057298715266876486 0.1524899619938892
0.2756193256778933 1.0076371009209628 0.04752582535716777 -0.037795032138361426 -0.24987383751079228 1.805656668935558 0.44804739460694837 -0.4423000686600171
0.11778432698600014 -0.050133137523988396 -0.5479731936100034 0.6988459618231544 0.8150150674925399 -4.92562782805938 -0.12061080519105245 0.35688576720018506
0.057043233772424026 0.21374801931652793 -0.26297663896361173 0.3905944606612407 0.17392775179742218 1.3732492361651214 0.034391868428745885 0.183075657937733
-0.13685620880400184 0.3830727555042505 0.5158531336621105 0.39045711219218715 0.5083164327937237 -1.3457076486156312 0.4928204637838238 0.6933985888131634
-0.4537422687277302 0.28619616265091 -0.6470166419759567 0.016199086188462403 -0.5193645756570135 -0.1106445317993692 -0.13072101378595646 -0.08899412044983308
-0.37796559643423144 0.5509548746811731 0.04667498441482773 0.36185292300523775 1.1603306239317102 -1.1492717061674387 0.8547435185383426 -0.5216695427231932
0.18415034006098638 0.3268988718760756 -0.08058568306852217 -0.3612590130681443 0.6478304698473999 -0.851890299986491 -0.05033110324209672 0.3739422864700095
00000000: 13eb c02b 038a c13f 628c 7816 5127 03c0
00000010: 6799 7469 824f df3f d80b 0256 7354 e03f
00000020: 9c81 1baf 30cf 1040 d08d 28f2 db6b e63f
00000030: 5d09 28b8 6cd8 dcbf f299 a217 ccb5 ccbf
00000040: c78c cf10 3851 d23f 9276 6a48 623f c0bf
00000050: 6f49 dc95 7b6b b6bf f73a 8ac3 6aba c1bf
00000060: 2e55 99ff d7f9 ef3f 33f8 39a0 58f9 fc3f
00000070: 615d 8e0d 8c00 cabf ba37 8a9c f40e d43f
00000080: 0de5 dd8b c273 ddbf 74f0 161a c5a0 e6bf
00000090: 6890 13f1 b345 a2bf 573c 4f43 9f30 d43f
000000a0: 2c54 80f7 8d80 fa3f 0b03 fc00 1379 ebbf
000000b0: dcba 944b f489 bebf daf8 5911 1035 acbf
000000c0: 4056 e687 acc1 cfbf f54a dd55 2797 d4bf
000000d0: ea9e a968 aa3d ddbf f9ac ba10 bfc3 c3bf
000000e0: 749c d6f6 c951 ca3f f7c0 916b d6ab ca3f
000000f0: 8160 40da e2ca eabf d6e2 3ee7 4b6c c73f
00000100: 4453 1a79 aa0a c6bf ad73 328a d953 b93f
00000110: 88bb 321c 3761 bebf fa19 d783 f32c e0bf
00000120: 5255 860b d8cc d1bf b768 4486 d093 b43f
00000130: 79c9 2fda cc41 b5bf 253d 4056 1b92 cebf
00000140: 7f84 b202 a39c c03f 05f6 f29c 442d b93f
00000150: 8da2 d012 59e5 e13f fb50 6a73 7fd6 9abf
00000160: e5e6 5948 2682 cf3f 1c50 1aeb fa7b f6bf
00000170: 2c4b b1fc ede7 da3f e93d e957 1057 ab3f
00000180: 0a33 c61b 1776 d03f 9a73 53b1 6373 c03f
00000190: 65aa 3e3b 049a d93f bcfa f0b2 d95a cabf
000001a0: 1c8d e278 24e5 bdbf c2a8 f55e f1dd dabf
000001b0: 6b48 a5ad 0bc5 d23f 4853 a16a 0117 d8bf
000001c0: 5ba7 aa6a 4321 943f 218a ce3d 9bec cabf
000001d0: a239 3050 acbf c33f 8bb6 61b8 8da8 df3f
000001e0: 1486 db1f 18cc d53f 219a a024 397c 0b40
000001f0: e744 a47e ce24 bf3f bc35 3a04 ecea df3f
00000200: af7f 9109 12b0 d6bf 1235 8c0b 9b5b e93f
00000210: 2100 70c1 95a0 cb3f fb4a a930 13cf cabf
00000220: 8ac5 26af 6d08 dabf 6e33 f4d1 bff4 fa3f
00000230: 231d 59d8 4156 ad3f 64b3 dd83 ca84 c33f
00000240: efa7 7b3d bfa3 d13f 8f11 ab14 481f f03f
00000250: 01b7 3f13 4e55 a83f 8e97 f8d5 de59 a3bf
00000260: 4010 1eac ddfb cfbf ce1e 4e3f f8e3 fc3f
00000270: 3945 b9fa ceac dc3f f773 7af2 a44e dcbf
00000280: aee0 6218 1d27 be3f 7f09 39f4 0cab a9bf
00000290: f077 3414 ff88 e1bf 8c1b df34 f25c e63f
000002a0: 0d16 947a 9a14 ea3f 5421 07c8 d7b3 13c0
000002b0: f5fc d687 59e0 bebf 2c17 a266 37d7 d63f
000002c0: 1e73 054f c534 ad3f 464e 4658 185c cb3f
000002d0: 4d7c fdf7 9bd4 d0bf 7e7b a2e8 7fff d83f
000002e0: 151a ebba 4343 c63f fb60 e930 d4f8 f53f
000002f0: 63b2 4c9c cf9b a13f b6a3 c4ed 056f c73f
00000300: 8cab 8816 8184 c1bf 6f47 3897 4384 d83f
00000310: afc5 536e de81 e03f 78c9 d6d3 3ffd d83f
00000320: 24ca dbd2 2044 e03f c77f 4cbe 0488 f5bf
00000330: a011 b0d7 5e8a df3f 5d71 c13c 5230 e63f
00000340: 85e6 3f03 1d0a ddbf 01e3 b4b5 0951 d23f
00000350: a824 a83e 5cb4 e4bf 753d 9e45 7e96 903f
00000360: b4ba 6475 a29e e0bf e23c 8f35 3353 bcbf
00000370: b829 8e57 77bb c0bf 154a de94 51c8 b6bf
00000380: a0ae ec9c 9630 d8bf 337a 0a1e 6ca1 e13f
00000390: bcbb 3497 c8e5 a73f 863f 9129 9928 d73f
000003a0: f157 25d8 b690 f23f fb50 83ba 6a63 f2bf
000003b0: 85e2 5214 0f5a eb3f ac17 2a53 84b1 e0bf
000003c0: c3fa 0d04 3d92 c73f 86a6 f33e e9eb d43f
000003d0: 951c 4e69 43a1 b4bf 9fd3 a01f de1e d7bf
000003e0: c719 2bf7 06bb e43f 6a17 4772 af42 ebbf
000003f0: 98f5 ca94 ffc4 a9bf d8ba bea0 abee d73f

b2 f8 [8]
-0.0285025448208435 1.5360605890336265 -0.20590907764548588 -0.22366134088132866 -0.511335538731729 1.1104799454027103 0.3150081243272766 -0.04446833961572737
00000000: 69e5 6e67 c52f 9dbf c92e a944 b493 f83f
00000010: e6eb 3789 3a5b cabf 0a7f 3b50 efa0 ccbf
00000020: 8554 0459 dc5c e0bf 67e5 859e 86c4 f13f
00000030: e76f fdd5 1729 d43f cec4 b6e0 8dc4 a6bf

W3 f8 [8, 1]
0.439682940467991 3.1252223526547858 0.4443160075210885 -0.8072804408727329 -4.662173201694082 -7.06393755301977 0.7580121072157204 0.539212320371337
00000000: 21d3 7aea c323 dc3f 3b0b ab93 7400 0940
00000010: 831c 5968 ac6f dc3f 93f6 87ca 3dd5 e9bf
00000020: 3941 56bb 10a6 12c0 20d3 8cd8 7841 1cc0
00000030: 86d5 4e9b a241 e83f 9c0b 3332 3a41 e13f

b3 f8 [1]
0.9703258682853001
00000000: fdf0 d7d5 e80c ef3f
